RNNforPredictSIN/simple_rnn_model.pth (torch, 54454 bytes, 9 tensors)

rnn.weight_ih_l0 f4 [64, 1]
000000 9e b9 34 3e d0 81 64 3e 47 4f 0c be cd 0d cf 3d
       0.17648932 0.22315145 -0.13702117 0.10110054
000010 fd af 98 bc 95 18 26 3c 39 bb ea bd af 77 30 3d
       -0.018638605 0.010137697 -0.11461491 0.04308289
000020 73 8e 65 3e 3a ca 32 be 31 7f b6 3d 33 e0 d9 3d
       0.22417621 -0.17459956 0.089109786 0.10638466
000030 87 79 5e 3e ad ba b0 3d 11 d0 06 3e 9a 7f a9 bd
       0.21726047 0.086293556 0.13165309 -0.08276291
000040 2c f0 30 3e ff c2 11 3e c6 05 d7 bd 80 a8 40 bd
       0.17279118 0.14234541 -0.10499148 -0.047035694
000050 24 e7 38 be bd 9e e7 bd e1 86 12 be bb 40 53 3e
       -0.18056923 -0.11309574 -0.14309265 0.20630161
000060 95 fd 47 be 8d 44 32 be d2 d2 70 3d dc 8a 37 be
       -0.19530328 -0.17408963 0.058794804 -0.17924064
000070 14 1e af 3d aa 9c 7c be 76 05 63 3e 53 19 70 be
       0.08550659 -0.24669138 0.22170052 -0.2344716
000080 82 42 08 3e 9c 37 3d bd b9 6d 15 be 40 fb c2 3c
       0.1330662 -0.04619561 -0.14592637 0.023801446
000090 08 d4 6c 3d d1 cf 35 3e 21 df 9f bd 82 14 cd bc
       0.057819396 0.17755057 -0.0780623 -0.025034193
0000a0 22 7e 06 3e 96 51 17 be 88 45 2f 3e 8c 0e 34 3e
       0.13134053 -0.14777216 0.17116368 0.17583674
0000b0 33 fb 84 3d ab 92 e8 bd f6 2c bf 3d 6d 4c ad bd
       0.06493225 -0.113561 0.093347475 -0.08461843
0000c0 6f ee 9a 3c f7 b6 0b be 81 1b 59 be 98 e3 d2 bd
       0.018912522 -0.13644014 -0.21201898 -0.10297316
0000d0 bc fc 11 be 0d 86 d7 3d 52 77 0f 3e 0a 5a a6 3d
       -0.14256567 0.10523615 0.14010361 0.08122642
0000e0 98 12 dd 3d e4 ac e6 3d 92 5b 04 3e cb eb 32 be
       0.10794562 0.11263445 0.12925556 -0.1747276
0000f0 cc 44 d6 bd 13 9d 31 be b5 32 10 3d 2b 12 1a be
       -0.10462341 -0.17345075 0.035204608 -0.15045993

rnn.weight_hh_l0 f4 [64, 64]
000000 84 9c 3c 3d c6 6f c2 bc 54 dc b7 3d 56 29 d0 bd
       0.046047702 -0.023734938 0.08977571 -0.10164134
000010 07 a1 e5 bd 06 cc ff bd 6b 65 ea 3d 14 05 a9 3d
       -0.11212354 -0.12490086 0.11445125 0.08252922
000020 31 2c d6 3d 7a d9 c9 bd 47 64 cf bd 4f 4f 12 be
       0.104576476 -0.098559335 -0.10126548 -0.14288066
000030 b3 2e b0 bd 0e 00 b9 3d be dc f6 3c c0 5f b7 3d
       -0.08602657 0.090332136 0.030134555 0.0895381
000040 df 1e 1c bd 35 b9 02 be 17 0a 69 3d dd 92 70 bd
       -0.03811538 -0.12765963 0.056894388 -0.05873381
000050 dd 34 cb 3d 3e 80 f3 3b 2b 52 7e 3d a0 7f b4 bd
       0.09922192 0.007431059 0.06209008 -0.08813405
000060 16 84 a1 bd 28 37 45 3d 0f c9 24 bc 52 01 a5 b9
       -0.078865215 0.048148304 -0.010057702 -0.00031472236
000070 ce 78 d9 3d 1d 49 ad 3d dc 2a e6 bd 79 06 99 bd
       0.10618745 0.08461211 -0.112386435 -0.07471938
000080 70 d8 cc 3d 2b 5d 93 bd 95 40 f6 bc c7 9b 01 be
       0.1000222 -0.07195505 -0.030060092 -0.1265708
000090 4c 7b 37 bd dc 64 74 3c f0 b3 da 3c 88 7e b7 bd
       -0.04479532 0.014916625 0.026697129 -0.08959681
0000a0 6e 0b be bb 01 d5 d1 bd 47 ca e1 bd 20 ee 8b bd
       -0.0057997024 -0.102457054 -0.110249095 -0.06832528
0000b0 28 66 b2 bd f3 9f d7 bd 8c b3 c6 3d 8e e0 29 3d
       -0.08710891 -0.10528555 0.097022146 0.041473918
0000c0 7d b6 9f 3d 77 f5 b3 bd 01 44 8c bd 9c 69 42 bc
       0.07798479 -0.08787053 -0.06848908 -0.011866
0000d0 db 50 b8 3c da f1 84 bd 65 a0 98 bd 8c e2 d4 bd
       0.022499492 -0.06491442 -0.07452468 -0.10394773
0000e0 85 03 e5 3b a4 ac 75 bd 9b 8f 48 3b fa 9e 4c bd
       0.006988945 -0.059979096 0.0030603174 -0.0499563
0000f0 df cd 57 bd da 7c ed bd c8 30 21 bd 81 e7 cb bd
       -0.05268657 -0.11596079 -0.039353162 -0.09956265
000100 d4 87 2b 3e 19 00 7e 3c 82 34 aa 3d 99 c7 a3 3d
       0.16751033 0.015502953 0.08310796 0.079970546
000110 0f db 0d be e9 79 99 3d 24 ea 8e bd 49 9c b4 bc
       -0.13853095 0.07493956 -0.069782525 -0.022047179
000120 de 7a 99 bd 15 53 2e be 93 5d e1 3d 99 9b 8c bc
       -0.07494138 -0.17023881 0.11004176 -0.017164038
000130 a9 ad a3 3d df f8 be bd f7 a2 e1 3d 8c e7 d3 bd
       0.079921074 -0.09324812 0.11017411 -0.103468984
000140 25 5e ce 3c d3 dc af bb 4c 09 17 3d 9f 8e c9 3d
       0.025191376 -0.0053669005 0.0368741 0.09841656
000150 eb 0f e5 3d ce a9 ae bd 7a 64 5c 3c 46 e6 e0 bb
       0.11184677 -0.085284814 0.01345169 -0.0068633882
000160 c9 e9 2e bd bc 1a c9 bd 97 16 c1 3d 21 60 aa bd
       -0.042703424 -0.09819552 0.09428137 -0.083191164
000170 5a 95 ea 3d 77 b7 1a bb d5 95 4f 3d ca 1a e8 bd
       0.11454268 -0.0023607889 0.05068 -0.113332346
000180 66 bb 20 3e b4 b6 2f 3d 2f db 13 bc bf 06 be bd
       0.15696487 0.04289885 -0.009024425 -0.092786305
000190 cb 81 83 3d af 84 47 bc 52 b1 e4 bc 66 a2 ff 3d
       0.064212404 -0.01217763 -0.027916584 0.12482147
0001a0 ef 36 47 3d 5a af dd bd 23 bd f3 bc 3e 86 27 3d
       0.048636373 -0.10824461 -0.029753273 0.040899508
0001b0 14 16 d8 3d 11 e3 41 bd 1c c0 15 bd 6a 50 5e bd
       0.10551086 -0.047335688 -0.036560163 -0.054275908
0001c0 75 15 4b bd 90 a9 5c 3d 2b 84 93 3d 21 c3 f2 bd
       -0.04958101 0.053872645 0.072029434 -0.11853624
0001d0 dc ae 7b 3c 14 85 0e 3e d6 dd 7c 3c b4 59 80 bd
       0.015361514 0.13917953 0.015433749 -0.062671095
0001e0 d2 93 a6 3d 35 58 97 3d f9 ed 8d 3d 12 dd 4b bd
       0.08133663 0.07389871 0.06930155 -0.049771376
0001f0 19 29 04 bc 1c 0e 70 bc 8e ad be bc 2b 47 83 bd
       -0.008066439 -0.014651801 -0.023276117 -0.064100586
000200 1b 06 8f 3c 68 9f 6b 3d b1 bc ab bb 5e 80 ef bd
       0.017458966 0.05752507 -0.0052409996 -0.11694406
000210 d0 65 9e 3c be 76 bf bd 52 44 16 3e 24 c5 c0 3c
       0.019335657 -0.0934882 0.146745 0.023531504
000220 f9 a2 50 be 8e 2c 7c 3d 35 16 40 3c e7 dd 2e 3d
       -0.20374669 0.06156593 0.011724045 0.04269209
000230 60 e6 e7 bc 2b 50 66 bd e3 04 96 bd bf de c7 bd
       -0.028308094 -0.056228798 -0.07325151 -0.09759282
000240 13 a9 96 bd 6b 58 a7 3d 76 a4 34 3d 55 3b a0 3d
       -0.07356467 0.08171161 0.044102155 0.07823817
000250 47 fa e6 bd e3 a5 8f bd 5f 2c 40 3d 62 d0 92 3d
       -0.11278205 -0.07014062 0.046917316 0.07168652
000260 26 8a 88 3d ec 01 c7 bd 1f 9e 4b 3d da 6f fc bc
       0.06666975 -0.097171634 0.049711343 -0.030815054
000270 5a bc b7 bd 3d 13 30 3e e2 87 bd bd 30 35 92 bd
       -0.08971472 0.17194839 -0.09254433 -0.07139051
000280 a1 bb 98 be ad cc 5e bc 06 db e1 3d 1d 26 33 3d
       -0.2983065 -0.013598603 0.110281035 0.04373752
000290 69 46 c1 bd 58 83 f4 bd ab ef f1 bd 23 dd e2 3d
       -0.09437258 -0.11939114 -0.11813291 0.11077335
0002a0 8d 31 74 3d a6 a9 d3 3d 42 59 32 3c 03 66 0e 3d
       0.059617568 0.10335092 0.0108855385 0.034765255
0002b0 ad 44 4e bd 7b 9b be bd db 87 c3 bc b2 2a 9f bd
       -0.050358463 -0.09306999 -0.023868492 -0.07771815
0002c0 c1 eb da 3c 07 50 75 bd 94 69 e8 3c 30 98 69 bd
       0.026723744 -0.059890773 0.028370656 -0.057029903
0002d0 5c 6a 2b 3d 81 f9 7b bd 4c 2c ab bd a6 eb 6d 3d
       0.04184948 -0.061517242 -0.08358058 0.05808606
0002e0 2c 04 8c bc ce e5 5d 3d d3 6e 64 bc bc 78 fb bd
       -0.017091833 0.054174237 -0.013942438 -0.12278888
0002f0 69 94 fe bc ba 89 92 bd fe 63 a8 bd d7 69 dc bd
       -0.031076627 -0.071551755 -0.08222197 -0.10762375
000300 37 dc 72 bd 5f 29 17 be b0 8e a8 3d e7 8e 86 bc
       -0.059292044 -0.14761876 0.082303405 -0.016425563
000310 ef 5f a2 3d 82 f0 1a be 19 5e d1 3d fc 84 fe bd
       0.07928454 -0.15130809 0.10223026 -0.124277085
000320 48 93 23 3d f2 cb 82 3e 0e 91 21 be f3 39 3c be
       0.03993538 0.25546223 -0.1577799 -0.18381481
000330 3d 84 7a bd b1 f5 ec bd 8b c1 62 bd b4 a6 b0 bd
       -0.06116127 -0.115702994 -0.05536036 -0.08625546
000340 a0 41 8c 3c 41 22 f9 3c 63 d7 84 3d e9 7d 38 bb
       0.017121136 0.030411841 0.06486394 -0.002815122
000350 f6 84 c8 bd 94 f2 38 bc ec b2 7d 3d c2 1c 35 be
       -0.09790985 -0.011288304 0.06193821 -0.17686751
000360 3f 28 a5 3d 90 b5 a8 bd 27 f4 82 3c 0f b6 c1 bd
       0.08064317 -0.08237755 0.015985562 -0.09458553
000370 77 d7 de bd f8 be 8e bc d3 8b af bd a4 e2 06 3e
       -0.108809404 -0.017425045 -0.08571591 0.13172394
000380 e2 e4 83 3d 1f bd 47 bd 76 9e 09 3c 32 a2 28 bd
       0.0644014 -0.048764344 0.008399596 -0.041170307
000390 6f 49 37 be 93 52 e7 bd 8b a4 81 3c 26 d1 2d be
       -0.17899106 -0.11295047 0.01582553 -0.16974315
0003a0 fb a7 b4 bd 70 f1 1a 3e 99 31 3b bd 63 a7 b5 bd
       -0.08821102 0.15131164 -0.045701597 -0.08869817
0003b0 5d 6b a9 bd 02 97 94 bb 1c 72 a0 bd 7d ff ee bc
       -0.08272431 -0.004534603 -0.07834265 -0.02917456
0003c0 d0 8e bf bd 14 2a 3d 3d 1a 7e 3d bd 80 66 6c 3d
       -0.09353411 0.046182707 -0.046262838 0.05771494
0003d0 3f 1d 80 bc a3 06 8b bd 18 a9 40 3e 75 22 35 3e
       -0.015638946 -0.06788375 0.18814504 0.17688926
0003e0 44 c5 19 be af 98 9f 3b 07 7e a7 3d a7 92 27 3e
       -0.15016657 0.004870496 0.08178335 0.16364537
0003f0 6f 62 bf 3d f8 2e bf 3d 90 5f e9 3d 3e ff f1 3d
       0.093449466 0.093351305 0.1139518 0.11816262

rnn.bias_ih_l0 f4 [64]
000000 c7 69 b0 3d 82 ac a4 bc 7b 9c 97 3c f3 32 95 bd
       0.086139254 -0.02010179 0.018507233 -0.072851084
000010 54 2f 0a 3a e0 dd 06 3e e8 de 04 bc 51 df 45 3c
       0.00052713347 0.13170576 -0.008109786 0.012077169
000020 c4 ff b8 3d 56 d7 d2 bd f8 29 ef 3b ab cf 1e bd
       0.090331584 -0.10294978 0.0072987042 -0.038772266
000030 01 8e dd bd 5c b1 40 bd 80 d7 c7 bd 2f 99 70 3d
       -0.10818101 -0.047044143 -0.097579 0.058739837
000040 71 ab 4e 3b 57 07 3a 3d fb a3 7d 3c 28 79 69 3a
       0.0031535293 0.045417156 0.0154809905 0.00089062983
000050 eb 3f 6d 3b a7 1c 17 3e df ee bf 3c 99 6b 93 bd
       0.0036201428 0.14757024 0.023429332 -0.07198257
000060 87 87 be bd b3 5d a5 3d 77 60 8f 3d 80 2e 87 bd
       -0.093031935 0.08074512 0.07000821 -0.06600666
000070 b6 35 71 ba 91 03 17 bd f9 48 a7 3d 88 40 e5 3d
       -0.0009201424 -0.036868636 0.08168215 0.11193949
000080 95 76 c2 3d fc 34 2a 3d 30 b6 03 3c c9 ea ab 3c
       0.09495274 0.041554436 0.008039042 0.020985978
000090 70 47 1c bd d6 e6 fa bb ef 82 dc 3b 73 60 d1 bd
       -0.038154066 -0.0076569123 0.0067294757 -0.10223474
0000a0 d3 20 7c bd c1 23 dc ba 77 e4 10 bb 6a b1 93 bd
       -0.06155474 -0.0016795323 -0.0022108832 -0.072115734
0000b0 b3 b8 60 3d c7 2f 2c bd 81 ee bd bd 5e f2 06 3d
       0.054863643 -0.04203775 -0.09274007 0.032945983
0000c0 40 45 21 bd 8b 17 6f 3d bf 3c 8f bd b6 0a 1c bd
       -0.039372683 0.05837206 -0.06994008 -0.038096152
0000d0 00 0a c5 bd 71 0d e9 3d 2d cb b2 3d 3a 80 c9 bb
       -0.09621048 0.11379517 0.08730159 -0.006149319
0000e0 db fb 2d 3d 2e 95 13 bd e3 f5 95 3c 14 e4 b1 3d
       0.042476516 -0.03603094 0.018305724 0.086860806
0000f0 79 bf b6 bd 6a 15 09 bd c9 46 67 3d fa c6 ac bc
       -0.08923239 -0.033467688 0.05646399 -0.021090973

rnn.bias_hh_l0 f4 [64]
000000 b4 c1 e5 bd 94 3f d6 bd 73 d9 78 3d d0 2c 24 3d
       -0.112185866 -0.10461345 0.06075425 0.0400818
000010 9f e6 87 bd fa 5d de bd d2 62 15 3d 8f 1e ad bc
       -0.06635784 -0.10857768 0.036471196 -0.021132736
000020 14 b2 34 3d 4c 16 d4 39 09 09 d8 3c 7f 72 5b 3d
       0.04411514 0.00040452403 0.026371496 0.05357599
000030 a8 98 89 bc a5 fe 30 bc 58 c1 be 3d 89 ac 90 bd
       -0.016796425 -0.0108028995 0.09314221 -0.070641585
000040 c2 ac 8d 3d 69 40 35 bd 90 5d f0 3a d0 e5 97 bc
       0.069177166 -0.04425088 0.0018338431 -0.0185422
000050 c8 17 2d 3c 36 53 94 bd a0 bb 09 3d 5d 63 e5 bc
       0.010564752 -0.07242434 0.0336262 -0.028001482
000060 75 b3 ca 3d 02 59 0a bd 0d 20 97 3d ab d6 9e 3d
       0.0989751 -0.03377629 0.0737916 0.077557884
000070 04 fc 0f bc 09 47 71 3d 76 61 23 bd 1f c5 5c bd
       -0.008788113 0.058905635 -0.039887868 -0.053898927
000080 1a 2e 94 3d 52 c5 62 3d 8d 7d 86 3b 63 3a be 3c
       0.07235356 0.05536396 0.0041043223 0.0232212
000090 1a a7 e7 3c 7b b8 a3 bd da 77 e9 bc f7 9e 95 3d
       0.028277922 -0.07994171 -0.028499532 0.07305711
0000a0 37 e7 58 bd 3a 5d 40 3d 3c 5d e6 bd d1 b3 75 3c
       -0.05295488 0.046963908 -0.11248252 0.014996485
0000b0 45 ce 7f bc e9 fc 9d bc 1d 15 c5 3d 45 ad d9 3b
       -0.015613143 -0.019285636 0.09623168 0.00664297
0000c0 0d f9 c3 3c 88 1e 76 bd 15 77 dc bc 96 e6 6a 3a
       0.023922468 -0.06008771 -0.026912251 0.00089607516
0000d0 f1 70 1e 3d b2 ed 88 bd 78 13 8f 3c b8 cf 49 3d
       0.038681928 -0.06685962 0.017465338 0.04927036
0000e0 67 20 19 bc a5 7d 9e bd 76 b7 87 bd b4 2a d9 bc
       -0.009346104 -0.077388085 -0.06626789 -0.02650962
0000f0 ea da e2 3d 17 40 4f 3d 35 64 87 bb 44 e1 a0 3d
       0.11076911 0.05059823 -0.0041318187 0.07855466

rnn.weight_ih_l1 f4 [64, 64]
000000 3b 29 8d 3d e5 9c 0b 3e 4d ea ae bd d2 c5 2e 3e
       0.0689263 0.1363407 -0.08540783 0.1706765
000010 f0 fa 96 bc 84 e1 72 3d 88 7c 7a bd e6 4e ce bd
       -0.018430203 0.0592971 -0.06115392 -0.100736424
000020 05 06 a2 3d 84 1c 42 3d 2b 22 8c bd d3 3e 2e bd
       0.079113044 0.047390476 -0.068424545 -0.042540383
000030 30 6a 1d 3e a0 79 0a 3b 99 96 67 3d 01 c4 94 bc
       0.15372539 0.0021129623 0.056540105 -0.018159868
000040 31 f3 ae bc a5 f6 b0 3d e4 c7 12 bd b0 b4 36 bd
       -0.021356197 0.08640794 -0.03583516 -0.04460591
000050 58 ba 11 3c 3b 13 ee bd 68 58 39 bd 94 a9 aa 3d
       0.0088945255 -0.11624762 -0.045250326 0.08333126
000060 b5 53 87 bd de 25 82 3d 20 be e9 bd 22 cd 7a bd
       -0.06607763 0.06354879 -0.114132166 -0.061230786
000070 45 db 67 bc 4f 78 fd 3c 10 e6 ba 3d ce 49 0d be
       -0.014151399 0.030941157 0.09125912 -0.13797686
000080 d7 07 f4 3d 62 42 df 3c 96 08 5b 3d ec 1f 7f 3d
       0.11915558 0.027253333 0.053474985 0.062286302
000090 73 59 d1 bd 61 05 1d 3e c4 b8 1c bd b4 a2 39 bd
       -0.10222139 0.15334083 -0.038262144 -0.04532118
0000a0 8f cb f0 3d d6 53 a5 3d 8e 24 e8 3d 4f d8 31 bd
       0.11757576 0.08072631 0.11335097 -0.04341918
0000b0 51 de 44 3a 21 6c d3 3d e1 e3 dc 3c 65 c2 ff bd
       0.00075099344 0.10323358 0.02696413 -0.1248825
0000c0 c0 4f 72 bd 0c 68 bd bd c2 1c f2 bd 17 6e 1e 3d
       -0.059158087 -0.09248361 -0.11821891 0.03867921
0000d0 a2 f7 08 3c 29 f0 25 3e 7e e9 ca 3d fb 0d 5b 3c
       0.0083598215 0.16204895 0.09907816 0.013370032
0000e0 a3 2d 49 3d f6 e3 e5 3d e4 85 ba bd 60 ce 2e 3d
       0.04911579 0.11225121 -0.09107569 0.042677283
0000f0 78 10 88 bd eb 4d 05 3e 08 73 56 bd cd ac 9b bc
       -0.06643766 0.13018005 -0.052355796 -0.019003296
000100 a0 d1 cf 3c 4f 8a 01 3e a4 1f 0b bd e6 31 46 bc
       0.025368512 0.12650417 -0.03396572 -0.012096858
000110 a8 49 36 3c 56 a2 19 3e 02 d3 21 be 5f 4e 86 bd
       0.011125959 0.15003332 -0.1580315 -0.06557917
000120 32 dc 4b bc ae b4 82 bd dd ef 87 3d 14 81 2d 3d
       -0.012442635 -0.06382118 0.06637547 0.042359427
000130 48 9b 82 3d 65 d7 8e bd a6 9b f5 3d ef 20 8b bc
       0.06377274 -0.06974677 0.11992578 -0.016983477
000140 21 4f 27 bd df ed b0 bd 25 34 9f bd 22 71 64 bd
       -0.040846948 -0.0863912 -0.07773618 -0.055771954
000150 2d 29 0f be 7b dc b5 3c a3 a8 0d be 10 90 d9 3d
       -0.13980551 0.02219986 -0.13833861 0.10623181
000160 d4 66 1c 3d cd 54 81 bd ad 17 af bd b9 6f d7 bd
       0.038184002 -0.063150026 -0.08549438 -0.10519356
000170 a6 cc 8a 3d f4 a6 71 bd a0 27 22 bd 76 45 81 3d
       0.06777315 -0.05899711 -0.03958857 0.06312077
000180 f8 6a 1c 3e d2 18 01 3c 48 18 81 bd 8f 15 4b bd
       0.1527518 0.007879453 -0.063034594 -0.049581107
000190 8c 2e 94 bc f6 5e c5 3d 92 2f c5 bb 3d ee c5 bd
       -0.018088602 0.09637253 -0.0060176337 -0.09664581
0001a0 dc a7 23 3e 27 5a 1b be b0 fb 2f 3d 6b 13 fa 3d
       0.15982002 -0.15171109 0.042964637 0.12210735
0001b0 76 14 1a 3e f8 bd c7 3d 41 0b c1 3c 83 f1 fb bc
       0.15046868 0.097530305 0.023564937 -0.03075481
0001c0 e8 8a 83 bd 16 bc b8 bc 52 5a 96 bd 58 1c 17 3d
       -0.06422979 -0.022550624 -0.07341446 0.036892265
0001d0 36 2f 05 be 0c 4d 71 3d d8 a9 78 3d 8e 14 a3 3d
       -0.13006291 0.05891137 0.06070885 0.07962905
0001e0 32 44 2a bd 75 d4 11 3e a1 0a ef bd bd ec 6e bd
       -0.041568942 0.14241202 -0.11671949 -0.05833124
0001f0 f4 23 b3 3d e3 51 9d 3d f6 dc 89 3d f6 39 e8 bd
       0.08747092 0.07681634 0.06731598 -0.1133918
000200 eb 52 b0 bc 3a e9 32 be a2 85 7d bd 34 8d 74 bd
       -0.021523913 -0.17471781 -0.06189502 -0.059704974
000210 22 7a c9 bd 4a 4e 19 be ad 4e 47 bd c2 42 6d 3d
       -0.09837748 -0.14971271 -0.048659015 0.057924993
000220 a4 bf b2 bb c0 df 3c 3d 20 b1 dc bd 7b 49 33 be
       -0.0054549742 0.046111822 -0.107759714 -0.175085
000230 35 0f 19 be a9 57 8c bd 14 e4 1d be 80 0a e6 3d
       -0.14947207 -0.06852657 -0.15419036 0.112324715
000240 8a 55 9b bd c8 d6 45 bc f7 99 13 be 70 72 71 3d
       -0.07584675 -0.012075134 -0.14414202 0.058947027
000250 21 66 af bc 96 15 d4 bd fa ef 0f 3e d1 32 4a 3d
       -0.021411004 -0.1035568 0.14056388 0.04936487
000260 36 83 bc bc 66 32 b2 3c 4b 3f 64 3c 0d 12 a9 bc
       -0.023011785 0.021752547 0.013931106 -0.02063849
000270 8b ee c2 3c 52 c5 f1 3c 06 c1 f6 3d ca 16 7b 3d
       0.023795387 0.029513035 0.12048535 0.06130103
000280 4c c1 34 be 61 bb 00 be fc 16 b6 bd 00 43 24 3d
       -0.17651862 -0.1257148 -0.08891103 0.04010296
000290 b0 bd 16 be e1 e5 bf bd 5d b1 dd bd dc 99 29 be
       -0.14720798 -0.09370018 -0.10824845 -0.16562599
0002a0 47 e0 fe bd 55 d9 29 3e f1 57 17 3c a3 f2 7e 3d
       -0.12445121 0.16586812 0.009237275 0.062243115
0002b0 51 7a f8 bd 71 00 ab bc 0b 8c b2 bc f4 d9 20 3d
       -0.12132705 -0.020874234 -0.021795293 0.039270356
0002c0 f1 3c 09 be 9e eb 99 bc 4a 71 9b bd ca cd ff 3c
       -0.13402154 -0.018789109 -0.075899675 0.031226058
0002d0 95 ea 2e 3e f4 10 3a 3d 30 da 03 3e 33 e0 ce bc
       0.17081673 0.045426324 0.128762 -0.02525339
0002e0 98 2e 3e bc 31 45 05 be 31 f4 08 3b c8 14 19 3c
       -0.0116077885 -0.13014676 0.0020897503 0.009343334
0002f0 bb a6 af bd 02 53 13 be 0b 59 49 bc fe eb 8a 3d
       -0.08576723 -0.14387134 -0.012289296 0.06783293
000300 24 3c 89 bd e4 8d 47 be c7 5d 10 3e 65 00 d8 3c
       -0.06700924 -0.1948772 0.14098273 0.026367376
000310 5d a1 1a bd e9 fb c0 bc bf 52 27 3e 0e 22 00 be
       -0.037751544 -0.02355762 0.16340159 -0.12512991
000320 86 fb 3e be 25 7d c9 3d 4f 49 73 bd 7e b7 a4 3c
       -0.18650636 0.098383226 -0.059396084 0.020107027
000330 5b 97 02 be e3 bb 53 3c d6 9b 1f 3d a1 91 2e bc
       -0.1275305 0.012923214 0.038966976 -0.010654838
000340 a4 0a a7 bd 31 89 c4 bd e5 45 46 bb 9b 2d bc 3d
       -0.081563264 -0.0959648 -0.0030254063 0.09188386
000350 81 a9 89 bd 07 6c 82 bb 48 0e 01 3e d8 41 db bd
       -0.067217834 -0.003980163 0.12603104 -0.10705918
000360 2e c9 8e 3b e3 da 33 bd db 3b 2b bd 0b 27 f1 3c
       0.0043574786 -0.04390992 -0.04180513 0.029437562
000370 49 d2 28 be 2b be 10 3e 69 1a 8f bd 2c 79 fc 3c
       -0.16486467 0.14135043 -0.06987459 0.030819498
000380 7c 57 b4 bd 40 42 2a 3d 56 64 81 bc b5 e9 d9 bd
       -0.08805749 0.041567087 -0.015794914 -0.10640279
000390 3d ec 9e bd 1f 87 00 be 19 14 6d bd 87 61 e5 3d
       -0.077599026 -0.12551545 -0.057880495 0.112002425
0003a0 66 ef 28 be e7 6b 02 bd 6b 49 39 be 79 60 0a be
       -0.16497573 -0.031841185 -0.18094413 -0.13513364
0003b0 22 c1 48 bd 74 c7 7a bd c7 6e 6d bd 17 16 d6 3d
       -0.04901231 -0.06122537 -0.057966974 0.10453432
0003c0 08 cb 83 bd cf c8 84 3d bb 2d 9d 3d 90 9f f8 3d
       -0.064352095 0.06483614 0.07674738 0.12139809
0003d0 cf fd 2d 3d a6 7e 58 3d b0 99 9d 3d fe 57 87 3d
       0.04247838 0.052855156 0.07695329 0.0660858
0003e0 c1 4d aa 3d 45 de f9 bd 3c c6 b8 bd ed dc 8c 3d
       0.08315612 -0.12200598 -0.09022185 0.06878076
0003f0 1f 8e f0 3c 43 ca c0 3d 06 3b 12 bd f9 d9 b2 3c
       0.029364644 0.09413578 -0.03570082 0.021832453

rnn.weight_hh_l1 f4 [64, 64]
000000 19 9e c3 3d 0b 98 19 3c 1d 8c 02 3e bb 1a ae 3d
       0.09551639 0.009374629 0.12748761 0.08501192
000010 6d fb 3f bc c3 f9 9c 3d 9a b1 e1 3d 52 85 8b bd
       -0.011717659 0.07664826 0.11020203 -0.06812538
000020 0e 31 3b bc e8 83 02 b9 28 24 df 3d 42 09 d8 3d
       -0.01142527 -0.00012446905 0.10895568 0.10548641
000030 bb 5b 45 bd ed df c2 3d 0a 6f 20 3e d8 c4 95 3d
       -0.048183184 0.09515367 0.15667358 0.073129356
000040 75 89 a7 bc f8 d0 eb 3a e5 5f 3c bd 8c 98 f4 3d
       -0.020451287 0.0017991355 -0.04598989 0.119431585
000050 e2 97 72 bd cd f4 d3 bd 73 d6 83 bc 77 7e 0c be
       -0.059226878 -0.103494264 -0.016093468 -0.13720118
000060 9b 9f 1e 3d 98 4b 7f bd c7 a7 11 bd 8c ee 94 bd
       0.03872643 -0.06232795 -0.035560396 -0.07272062
000070 46 12 a5 3d 37 82 05 be 46 4e 9c 3c d0 5f 3e 3d
       0.08060126 -0.13037954 0.019080292 0.046478093
000080 90 4f ab bd d9 04 af 3d a2 6e 2a 3d 4a b2 5b bd
       -0.08364785 0.085458465 0.041609414 -0.053636827
000090 a1 d7 31 be e7 a0 04 3d 97 08 19 3e 29 bb a7 bb
       -0.17367412 0.03238001 0.14944683 -0.005118747
0000a0 48 4d 81 bd e2 65 80 bd 26 86 be 3d 96 12 80 bc
       -0.06313568 -0.062694326 0.093029305 -0.015633862
0000b0 6e 99 da bc 67 dd 95 3c fd f8 b1 3d d8 a0 04 3d
       -0.02668449 0.01829405 0.08690069 0.032379955
0000c0 5c 5b c6 3d 9d 91 15 3e b3 06 9e bc f4 b3 f5 bb
       0.09685394 0.14606328 -0.019290304 -0.0074982587
0000d0 cf 2a 54 bc 43 cd 78 bd 36 dd 56 bc 77 54 02 be
       -0.0129496595 -0.060742628 -0.013114264 -0.12727533
0000e0 cf 40 cc 3d f1 94 93 bd 10 e2 72 bd d6 d7 14 bd
       0.09973299 -0.07206143 -0.05929762 -0.03633865
0000f0 40 2a fc 3d 16 aa 88 bd 14 71 d2 bc 54 b6 56 3c
       0.12312746 -0.06673066 -0.025688685 0.013104994
000100 9d 75 9f bd d5 7d b2 3c c5 de 31 3e ff d2 d2 3d
       -0.07786105 0.021788517 0.17370136 0.102941506
000110 76 d6 86 bd 94 46 b5 bd 3a ef 80 3b 67 fe 12 be
       -0.06583874 -0.08851352 0.003934768 -0.1435486
000120 6e 1f b1 bd 39 2d 0f bd 0c 35 44 3d e7 45 4f ba
       -0.08648573 -0.034955237 0.047902152 -0.00079068396
000130 33 07 6e bd 4a 6e c9 bd fa 36 c5 3c 59 8c 92 bd
       -0.058112334 -0.09835489 0.024074066 -0.071556754
000140 40 70 39 bd 7b 14 18 be eb a6 d8 bb b9 d6 e0 3c
       -0.045273066 -0.14851563 -0.006611695 0.027446138
000150 32 49 4a 3b b0 79 3f 3d d5 e5 3c 3d bb ff 4d ba
       0.0030866382 0.04674691 0.046117622 -0.0007858236
000160 d1 36 57 3b bd 11 19 3d ec a4 d8 bd 43 2d 1c be
       0.003283907 0.037370432 -0.10578331 -0.15251641
000170 23 80 a3 3c e9 3e af bc 23 2e 85 3d 31 59 f7 3c
       0.019958561 -0.021392303 0.065029405 0.030193897
000180 1d 7d 3a 3e 09 e5 38 3d 3c cb 19 bd c0 c2 26 bc
       0.1821179 0.0451403 -0.037547335 -0.010178268
000190 12 3d b3 bc 87 04 12 be ef 6f 04 bc de 50 16 3d
       -0.021879707 -0.1425954 -0.008083328 0.036698215
0001a0 bd 06 d9 bc 3a a6 b4 3d 7d ed df bc 98 b8 f6 3d
       -0.02649247 0.08820768 -0.027334923 0.12046927
0001b0 c9 08 24 bd b0 0f f8 bd 1b 3d 25 3d da 19 e6 3a
       -0.04004744 -0.12112367 0.040341478 0.0017555312
0001c0 34 38 0c 3e c8 2a 1e bc 44 e8 48 be d0 72 82 bd
       0.13693315 -0.0096537545 -0.19619852 -0.06369555
0001d0 c7 40 01 3d ce c0 d6 3d 79 01 25 3d b2 5e 41 bd
       0.031555917 0.10485993 0.040284608 -0.04720945
0001e0 18 5e 36 3e b2 67 65 3d e5 32 22 3d 32 ad 49 bd
       0.17809331 0.056007095 0.039599318 -0.049237438
0001f0 36 2a 9d 3b b3 d7 b8 3d 3a 87 6d 3d cf 93 e2 3d
       0.0047962917 0.09025516 0.05799029 0.110633485
000200 9b 84 62 3c 98 13 22 bd df 0f 6b bd 6a 20 61 bd
       0.013825561 -0.039569467 -0.057388183 -0.054962553
000210 f4 a8 0a 3e d8 3d bd 3d c7 c0 29 bd e9 b6 9d 3d
       0.13541013 0.092403114 -0.041443612 0.07700903
000220 ee 6c 07 3d dd 81 b3 bb dc 8f e9 bd f7 cc 87 bd
       0.033062868 -0.0054781274 -0.11404392 -0.06630891
000230 57 5a 11 3d 77 e1 6a bd 8e cd 02 be 1e ea b6 bc
       0.035486545 -0.057343926 -0.12773725 -0.022328433
000240 07 35 3f 3e dd 1d 00 3e 60 23 11 be 15 d4 c7 bd
       0.18672572 0.12511392 -0.1417365 -0.09757248
000250 e5 99 b4 3d b0 6a 99 bd 23 33 9e 3d 44 17 88 3c
       0.088184156 -0.07491052 0.07724597 0.016612656
000260 b7 0d 0f bd bc 07 a3 bd a4 28 f2 3d 82 26 82 bd
       -0.03492519 -0.079604596 0.11824158 -0.06355001
000270 ec 35 94 bd db 2d 98 3d 57 1b 83 bb f6 12 58 bc
       -0.07236847 0.07430621 -0.004001062 -0.013188114
000280 a1 aa 39 bc 05 73 be bc b0 36 21 bd d2 63 0c be
       -0.011332185 -0.023248205 -0.039358795 -0.13709953
000290 fb 5b b1 bd 95 67 04 3d 81 69 3a 3d ef ef 9e bc
       -0.08660122 0.032325346 0.045510773 -0.019401519
0002a0 c0 9e e5 3d 1c 84 ab bd 6c 8b 3c bd 6c 60 c0 bd
       0.1121192 -0.08374807 -0.0460314 -0.09393391
0002b0 5d 25 2e bd c5 72 e9 3d 1d 9e ae 3b 6d 75 55 3d
       -0.0425161 0.11398844 0.005328907 0.05211394
0002c0 d3 76 8c bc bc 65 68 3d a2 4c 82 3e 00 ab b6 3d
       -0.017146504 0.056737646 0.2544909 0.089193344
0002d0 8f c2 fa bc 8a 8e 2e 3d 01 25 47 3e 55 a7 e4 bd
       -0.03061035 0.042616405 0.1944771 -0.111647286
0002e0 25 06 e2 bd e4 e9 20 3d 3b 2d 36 bd e4 49 12 bd
       -0.11036328 0.039285555 -0.04447673 -0.035715
0002f0 5d 36 bd bd 9b 66 ed bd 1c a2 9a bc 93 58 fa 3d
       -0.092388846 -0.11591836 -0.018876128 0.122239254
000300 53 94 f2 3b b9 38 84 bd 39 8a d6 bc 9c f5 3f bc
       0.0074029355 -0.064561315 -0.026188957 -0.011716273
000310 ca 21 dc bc c2 3b 02 3d cf 79 ac bd ac a3 d4 3d
       -0.02687158 0.03179527 -0.08421671 0.103827804
000320 be 8a ff 3d 20 e7 43 3d 4c 40 00 bd 03 bb 91 3d
       0.12477635 0.04782784 -0.03131132 0.07115748
000330 f6 a1 c0 3c e7 62 bc bd a7 97 5c 3d f4 0a 0f 3e
       0.023514729 -0.091985516 0.053855564 0.13969022
000340 7d 50 f1 3d 6f 6b 17 3e 1e 33 4a 3d d1 2b dc 3c
       0.1178293 0.14787076 0.049365155 0.026876362
000350 5b f7 03 3d 17 8c d5 bd 05 e8 4e 3d 94 c9 92 bc
       0.03221832 -0.10427111 0.05051424 -0.017918386
000360 d7 03 25 3d 0c 7f c2 bd a0 c4 02 3d df 71 f1 3d
       0.040286865 -0.094968885 0.031925797 0.11789297
000370 19 8f 09 bd c3 82 4f bc d3 6c 8d bd 3c 0d bc bb
       -0.033583734 -0.012665453 -0.06905522 -0.0057388823
000380 8a 39 17 be b3 82 0f bc 8c d3 f0 bb 08 ad 1f bc
       -0.14768043 -0.0087591885 -0.007349437 -0.009745844
000390 c4 fb 69 bd e9 c5 7f 3d a5 1f cc bd f4 40 a4 bc
       -0.057124868 0.0624446 -0.09966973 -0.020050503
0003a0 d5 a8 7d bd 7d 0b 09 be ed 11 1a 3b d4 8c 9b 3a
       -0.06192859 -0.13383289 0.002350922 0.0011867532
0003b0 af 52 b1 3d 8f f9 16 3e 89 4a 05 3e 63 bf 6b 3d
       0.08658349 0.14743637 0.13016714 0.057555567
0003c0 51 1e fd 3c e6 0d df 3c 89 f2 95 bd 34 d8 d8 3d
       0.030898245 0.027228307 -0.073216505 0.105881125
0003d0 cc aa 0e 3d e2 83 30 bd bc 02 e5 bb 01 c4 23 3e
       0.034830853 -0.043094523 -0.0069888514 0.15992738
0003e0 5b 64 61 3d d7 d2 f2 bc aa bd aa bd 27 54 1f bd
       0.055027347 -0.029641552 -0.08336957 -0.038898613
0003f0 bf 22 41 3d 34 5e b8 bd e0 a5 e2 bd b5 4e cf bd
       0.047152277 -0.09002343 -0.110667944 -0.10122434

rnn.bias_ih_l1 f4 [64]
000000 17 a9 2c bc 75 a2 b3 bd ce 0d 0f bd aa ff c0 3c
       -0.010538361 -0.087712206 -0.034925275 0.02355941
000010 96 00 c4 bd 5b 2e 80 3d 41 56 d4 3c b3 90 9e bd
       -0.09570424 0.062588416 0.025920035 -0.07742443
000020 c5 36 19 3d b3 b9 37 ba 42 19 51 bd 9d 89 9c bc
       0.037405748 -0.00070085673 -0.05104948 -0.019108588
000030 f0 75 9d 3c b4 bc 1a be 27 c8 ca bd 1c 35 86 3d
       0.019221276 -0.15111047 -0.09901457 0.065530986
000040 49 0e 6d bd 98 75 78 bd 06 fa f1 bc 75 74 99 bc
       -0.05787495 -0.06065902 -0.029538166 -0.018732289
000050 50 98 89 3d a0 41 6a bd 0d 1e ed 3b 67 6b 24 bb
       0.067185044 -0.05719149 0.0072362483 -0.002508843
000060 df ba 60 bd 62 ab b4 3d b7 7c 8d 3d 2c d5 9b bc
       -0.054865714 0.08821751 0.06908553 -0.019022547
000070 fd 8d 60 3c 3e de df bc f1 72 4a 3d 9d 05 c9 3c
       0.013705728 -0.027327653 0.049426023 0.02453881
000080 79 11 57 3d 59 e4 00 3c eb 71 33 3d ab 9b a3 bd
       0.052506898 0.007866942 0.043809813 -0.07988676
000090 b7 41 01 be fe df 57 3c 9b e6 c6 bd 49 89 26 be
       -0.12622724 0.0131759625 -0.09711953 -0.16263308
0000a0 82 3d 95 3d 4b 78 19 be 6b 45 99 3d 0c 3a c5 bd
       0.07287122 -0.14987294 0.074839436 -0.09630212
0000b0 ff 26 a3 bd cc 91 71 3d 44 8c d3 bb a8 fa 98 bb
       -0.07966422 0.058976933 -0.00645593 -0.0046685524
0000c0 b3 9d d3 3d 97 ce d3 bd 00 a9 51 bd 41 48 d1 bd
       0.10332813 -0.10342138 -0.05118656 -0.102188595
0000d0 34 07 ac bd d9 ed 68 bd b2 9f ae 3d 8f ed 75 bd
       -0.083998114 -0.056867454 0.08526553 -0.060041007
0000e0 5e 1f 48 3d 3c 30 10 bd 48 25 47 bc f7 81 cd 3d
       0.04885804 -0.03520225 -0.012154885 0.100345545
0000f0 04 98 e2 bc f4 ab 46 3d b6 d6 dc 3d 78 8e c2 bd
       -0.027660377 0.04850383 0.1078314 -0.0949983

rnn.bias_hh_l1 f4 [64]
000000 64 1b 95 3d b7 14 c4 3d fc cf 69 3d 41 e3 cb 3d
       0.07280615 0.095742635 0.057083115 0.099554546
000010 a5 a9 d5 bd f7 72 82 bd 79 99 bc bd 11 06 17 3c
       -0.10432748 -0.06369584 -0.0920896 0.009217755
000020 68 40 31 bd ba e9 88 bc 99 35 47 bd d1 df 5a bc
       -0.043274313 -0.016713012 -0.0486351 -0.013359026
000030 f8 1b b9 3d 6e a5 16 bd df 3f bd 3d b7 5f df 3c
       0.09038538 -0.03677886 0.09240698 0.02726732
000040 1f 0b c9 3c e2 bc 0f 3d 6b 38 04 bd 95 b7 b3 bd
       0.024541436 0.035092242 -0.032280367 -0.0877525
000050 a2 71 b1 bd e5 f8 df 3d 97 65 32 3d 23 64 6f bd
       -0.08664252 0.10936145 0.043553915 -0.058445107
000060 ce 35 fb bd 4e e6 67 3d 35 fc 86 3d 9a 8f d5 bd
       -0.12266122 0.05661612 0.065910734 -0.104277804
000070 39 c2 95 bd ef 33 b8 bd 97 c4 50 3c b3 01 b4 bd
       -0.07312436 -0.089942805 0.012742183 -0.087893866
000080 a1 b9 34 3c 70 cd 9e bc 3d d0 b5 3c 48 1e a8 bc
       0.0110305855 -0.01938507 0.022194022 -0.020522252
000090 cd 82 2d bc 90 f8 1a 3c c6 da 17 3d e6 2a 77 3d
       -0.010590267 0.009458676 0.037073873 0.060343646
0000a0 f1 ef ab 3c 7e e1 b7 3c 2e 15 1e 3d cc f7 9f bd
       0.020988436 0.02244639 0.038594417 -0.078109354
0000b0 b6 b0 36 bd fe 4f 64 3d df 84 12 3c 31 03 b7 bc
       -0.04460212 0.05574035 0.008942812 -0.022340389
0000c0 17 18 be 3d 3c 1a 0b be 53 ec eb bc 90 59 a6 3d
       0.092819385 -0.13584226 -0.028799212 0.081225514
0000d0 c9 91 be bc 6a 2a 0b bd 80 9a 23 3d f3 ad 43 3b
       -0.023262875 -0.033975996 0.039942265 0.002985832
0000e0 94 eb 1f 3c 9f 3a cb bd 48 59 ea bc 4f 15 bb 3c
       0.009760756 -0.099232905 -0.028607026 0.02283731
0000f0 e9 dd f7 bd ea 89 16 3c 0f aa b2 bc 09 a1 d3 3d
       -0.12102873 0.009188155 -0.021809606 0.103334494

fc.weight f4 [1, 64]
000000 9b 39 91 3d 87 02 19 3d 75 31 85 3c e4 4d 78 bd
       0.070910655 0.037355926 0.016258935 -0.060621157
000010 e2 5c 7a bd 4c c6 04 3c dd 41 31 bc e6 6f ed 3c
       -0.061123736 0.008103918 -0.010818926 0.028984021
000020 9c 8a 2c bc d1 10 c1 3d ad c5 a8 bd 21 5d 02 bd
       -0.010531094 0.094270356 -0.08240829 -0.031827096
000030 8e 5a 6f ba ef 20 02 bd 11 9d 68 bd b8 3c 87 3d
       -0.000913062 -0.03176969 -0.056790415 0.06603378
000040 84 17 25 bc f8 46 b9 bc b2 80 ff 3d 1f 44 c2 bd
       -0.010076407 -0.022616848 0.124757186 -0.09485649
000050 9b e9 9b bd cd 6d 14 3d 1d c5 70 3d 40 64 07 3d
       -0.07612916 0.036237527 0.058781732 0.03305459
000060 9b 03 74 bd b6 80 9f 3d 42 ac 15 3d 3b 19 4b bd
       -0.05957375 0.077882215 0.03654123 -0.04958461
000070 b5 00 14 3d 20 53 c0 bc 05 e8 2d bc 28 12 55 3c
       0.036133487 -0.023477137 -0.0106144 0.013004817
000080 13 63 5e bc 1b be 94 bd d3 9c 96 3c ec 2b 39 bd
       -0.013573426 -0.07262822 0.018385326 -0.045207903
000090 4d e0 e3 bb f2 ef b0 b9 6c 5c aa bd ff 46 ce bd
       -0.006954229 -0.0003374811 -0.08318409 -0.10072135
0000a0 99 48 6a 3d 71 90 e7 bc 6b 42 36 3c 0c 4a 62 bd
       0.05719814 -0.028267117 0.011124234 -0.055246398
0000b0 59 ee 9f 3b ae ab 0e 3d 57 72 bf 3b 85 0d bd 3c
       0.004880708 0.034831695 0.005842488 0.023077736
0000c0 94 f9 24 3d 22 ad a0 bd 0d b7 8b bc e0 fb 51 3d
       0.04027708 -0.078455225 -0.017055059 0.051265597
0000d0 98 54 ed 3c 0c eb 2d 3d a0 26 b7 bc 8a 61 94 3c
       0.028971002 0.042460486 -0.022357285 0.018112916
0000e0 b2 aa af 3d 50 b8 34 ba 16 eb 7b bc c1 91 73 3d
       0.085774794 -0.000689392 -0.015375873 0.059465174
0000f0 44 bd 15 bd 3d c9 0e bd 0d 02 24 3d 9a 18 a1 bc
       -0.03655745 -0.034859885 0.04004102 -0.019665051
